{"backend": "tensorflow", "keras_version": "2.3.1", "config": {"layers": [{"config": {"go_backwards": false, "dropout": 0.0, "trainable": true, "use_bias": true, "stateful": false, "batch_input_shape": [null, 21, 706], "kernel_regularizer": null, "return_state": false, "unroll": false, "dtype": "float32", "kernel_constraint": null, "recurrent_dropout": 0.2, "name": "lstm_1", "kernel_initializer": {"config": {"scale": 1.0, "mode": "fan_avg", "seed": null, "distribution": "uniform"}, "class_name": "VarianceScaling"}, "return_sequences": true, "bias_initializer": {"config": {}, "class_name": "Zeros"}, "units": 100, "recurrent_regularizer": null, "recurrent_initializer": {"config": {"gain": 1.0, "seed": null}, "class_name": "Orthogonal"}, "activity_regularizer": null, "recurrent_activation": "sigmoid", "implementation": 2, "bias_constraint": null, "unit_forget_bias": true, "activation": "tanh", "recurrent_constraint": null, "bias_regularizer": null}, "class_name": "LSTM"}, {"config": {"scale": true, "momentum": 0.99, "name": "batch_normalization_1", "trainable": true, "beta_constraint": null, "gamma_constraint": null, "center": true, "epsilon": 0.001, "beta_initializer": {"config": {}, "class_name": "Zeros"}, "gamma_regularizer": null, "beta_regularizer": null, "dtype": "float32", "gamma_initializer": {"config": {}, "class_name": "Ones"}, "moving_mean_initializer": {"config": {}, "class_name": "Zeros"}, "moving_variance_initializer": {"config": {}, "class_name": "Ones"}, "axis": -1}, "class_name": "BatchNormalization"}, {"config": {"go_backwards": false, "dropout": 0.0, "trainable": true, "use_bias": true, "stateful": false, "batch_input_shape": [null, 21, 706], "kernel_regularizer": null, "return_state": false, "unroll": false, "dtype": "float32", "kernel_constraint": null, "recurrent_dropout": 0.2, "name": "lstm_2", "kernel_initializer": {"config": {"scale": 1.0, "mode": "fan_avg", "seed": null, "distribution": "uniform"}, "class_name": "VarianceScaling"}, "return_sequences": true, "bias_initializer": {"config": {}, "class_name": "Zeros"}, "units": 100, "recurrent_regularizer": null, "recurrent_initializer": {"config": {"gain": 1.0, "seed": null}, "class_name": "Orthogonal"}, "activity_regularizer": null, "recurrent_activation": "sigmoid", "implementation": 2, "bias_constraint": null, "unit_forget_bias": true, "activation": "tanh", "recurrent_constraint": null, "bias_regularizer": null}, "class_name": "LSTM"}, {"config": {"scale": true, "momentum": 0.99, "name": "batch_normalization_2", "trainable": true, "beta_constraint": null, "gamma_constraint": null, "center": true, "epsilon": 0.001, "beta_initializer": {"config": {}, "class_name": "Zeros"}, "gamma_regularizer": null, "beta_regularizer": null, "dtype": "float32", "gamma_initializer": {"config": {}, "class_name": "Ones"}, "moving_mean_initializer": {"config": {}, "class_name": "Zeros"}, "moving_variance_initializer": {"config": {}, "class_name": "Ones"}, "axis": -1}, "class_name": "BatchNormalization"}, {"config": {"go_backwards": false, "dropout": 0.0, "trainable": true, "use_bias": true, "stateful": false, "batch_input_shape": [null, 21, 706], "kernel_regularizer": null, "return_state": false, "unroll": false, "dtype": "float32", "kernel_constraint": null, "recurrent_dropout": 0.2, "name": "lstm_3", "kernel_initializer": {"config": {"scale": 1.0, "mode": "fan_avg", "seed": null, "distribution": "uniform"}, "class_name": "VarianceScaling"}, "return_sequences": true, "bias_initializer": {"config": {}, "class_name": "Zeros"}, "units": 100, "recurrent_regularizer": null, "recurrent_initializer": {"config": {"gain": 1.0, "seed": null}, "class_name": "Orthogonal"}, "activity_regularizer": null, "recurrent_activation": "sigmoid", "implementation": 2, "bias_constraint": null, "unit_forget_bias": true, "activation": "tanh", "recurrent_constraint": null, "bias_regularizer": null}, "class_name": "LSTM"}, {"config": {"scale": true, "momentum": 0.99, "name": "batch_normalization_3", "trainable": true, "beta_constraint": null, "gamma_constraint": null, "center": true, "epsilon": 0.001, "beta_initializer": {"config": {}, "class_name": "Zeros"}, "gamma_regularizer": null, "beta_regularizer": null, "dtype": "float32", "gamma_initializer": {"config": {}, "class_name": "Ones"}, "moving_mean_initializer": {"config": {}, "class_name": "Zeros"}, "moving_variance_initializer": {"config": {}, "class_name": "Ones"}, "axis": -1}, "class_name": "BatchNormalization"}, {"config": {"go_backwards": false, "dropout": 0.0, "trainable": true, "use_bias": true, "stateful": false, "batch_input_shape": [null, 21, 706], "kernel_regularizer": null, "return_state": false, "unroll": false, "dtype": "float32", "kernel_constraint": null, "recurrent_dropout": 0.2, "name": "lstm_4", "kernel_initializer": {"config": {"scale": 1.0, "mode": "fan_avg", "seed": null, "distribution": "uniform"}, "class_name": "VarianceScaling"}, "return_sequences": true, "bias_initializer": {"config": {}, "class_name": "Zeros"}, "units": 100, "recurrent_regularizer": null, "recurrent_initializer": {"config": {"gain": 1.0, "seed": null}, "class_name": "Orthogonal"}, "activity_regularizer": null, "recurrent_activation": "sigmoid", "implementation": 2, "bias_constraint": null, "unit_forget_bias": true, "activation": "tanh", "recurrent_constraint": null, "bias_regularizer": null}, "class_name": "LSTM"}, {"config": {"scale": true, "momentum": 0.99, "name": "batch_normalization_4", "trainable": true, "beta_constraint": null, "gamma_constraint": null, "center": true, "epsilon": 0.001, "beta_initializer": {"config": {}, "class_name": "Zeros"}, "gamma_regularizer": null, "beta_regularizer": null, "dtype": "float32", "gamma_initializer": {"config": {}, "class_name": "Ones"}, "moving_mean_initializer": {"config": {}, "class_name": "Zeros"}, "moving_variance_initializer": {"config": {}, "class_name": "Ones"}, "axis": -1}, "class_name": "BatchNormalization"}, {"config": {"go_backwards": false, "dropout": 0.0, "trainable": true, "use_bias": true, "stateful": false, "batch_input_shape": [null, 21, 706], "kernel_regularizer": null, "return_state": false, "unroll": false, "dtype": "float32", "kernel_constraint": null, "recurrent_dropout": 0.2, "name": "lstm_5", "kernel_initializer": {"config": {"scale": 1.0, "mode": "fan_avg", "seed": null, "distribution": "uniform"}, "class_name": "VarianceScaling"}, "return_sequences": true, "bias_initializer": {"config": {}, "class_name": "Zeros"}, "units": 100, "recurrent_regularizer": null, "recurrent_initializer": {"config": {"gain": 1.0, "seed": null}, "class_name": "Orthogonal"}, "activity_regularizer": null, "recurrent_activation": "sigmoid", "implementation": 2, "bias_constraint": null, "unit_forget_bias": true, "activation": "tanh", "recurrent_constraint": null, "bias_regularizer": null}, "class_name": "LSTM"}, {"config": {"scale": true, "momentum": 0.99, "name": "batch_normalization_5", "trainable": true, "beta_constraint": null, "gamma_constraint": null, "center": true, "epsilon": 0.001, "beta_initializer": {"config": {}, "class_name": "Zeros"}, "gamma_regularizer": null, "beta_regularizer": null, "dtype": "float32", "gamma_initializer": {"config": {}, "class_name": "Ones"}, "moving_mean_initializer": {"config": {}, "class_name": "Zeros"}, "moving_variance_initializer": {"config": {}, "class_name": "Ones"}, "axis": -1}, "class_name": "BatchNormalization"}, {"config": {"go_backwards": false, "dropout": 0.0, "trainable": true, "use_bias": true, "stateful": false, "batch_input_shape": [null, 21, 706], "kernel_regularizer": null, "return_state": false, "unroll": false, "dtype": "float32", "kernel_constraint": null, "recurrent_dropout": 0.2, "name": "lstm_6", "kernel_initializer": {"config": {"scale": 1.0, "mode": "fan_avg", "seed": null, "distribution": "uniform"}, "class_name": "VarianceScaling"}, "return_sequences": true, "bias_initializer": {"config": {}, "class_name": "Zeros"}, "units": 100, "recurrent_regularizer": null, "recurrent_initializer": {"config": {"gain": 1.0, "seed": null}, "class_name": "Orthogonal"}, "activity_regularizer": null, "recurrent_activation": "sigmoid", "implementation": 2, "bias_constraint": null, "unit_forget_bias": true, "activation": "tanh", "recurrent_constraint": null, "bias_regularizer": null}, "class_name": "LSTM"}, {"config": {"scale": true, "momentum": 0.99, "name": "batch_normalization_6", "trainable": true, "beta_constraint": null, "gamma_constraint": null, "center": true, "epsilon": 0.001, "beta_initializer": {"config": {}, "class_name": "Zeros"}, "gamma_regularizer": null, "beta_regularizer": null, "dtype": "float32", "gamma_initializer": {"config": {}, "class_name": "Ones"}, "moving_mean_initializer": {"config": {}, "class_name": "Zeros"}, "moving_variance_initializer": {"config": {}, "class_name": "Ones"}, "axis": -1}, "class_name": "BatchNormalization"}, {"config": {"go_backwards": false, "dropout": 0.0, "trainable": true, "use_bias": true, "stateful": false, "batch_input_shape": [null, 21, 706], "kernel_regularizer": null, "return_state": false, "unroll": false, "dtype": "float32", "kernel_constraint": null, "recurrent_dropout": 0.2, "name": "lstm_7", "kernel_initializer": {"config": {"scale": 1.0, "mode": "fan_avg", "seed": null, "distribution": "uniform"}, "class_name": "VarianceScaling"}, "return_sequences": true, "bias_initializer": {"config": {}, "class_name": "Zeros"}, "units": 100, "recurrent_regularizer": null, "recurrent_initializer": {"config": {"gain": 1.0, "seed": null}, "class_name": "Orthogonal"}, "activity_regularizer": null, "recurrent_activation": "sigmoid", "implementation": 2, "bias_constraint": null, "unit_forget_bias": true, "activation": "tanh", "recurrent_constraint": null, "bias_regularizer": null}, "class_name": "LSTM"}, {"config": {"scale": true, "momentum": 0.99, "name": "batch_normalization_7", "trainable": true, "beta_constraint": null, "gamma_constraint": null, "center": true, "epsilon": 0.001, "beta_initializer": {"config": {}, "class_name": "Zeros"}, "gamma_regularizer": null, "beta_regularizer": null, "dtype": "float32", "gamma_initializer": {"config": {}, "class_name": "Ones"}, "moving_mean_initializer": {"config": {}, "class_name": "Zeros"}, "moving_variance_initializer": {"config": {}, "class_name": "Ones"}, "axis": -1}, "class_name": "BatchNormalization"}, {"config": {"go_backwards": false, "dropout": 0.0, "trainable": true, "use_bias": true, "stateful": false, "kernel_regularizer": null, "return_state": false, "unroll": false, "dtype": "float32", "kernel_constraint": null, "recurrent_dropout": 0.2, "name": "lstm_8", "kernel_initializer": {"config": {"scale": 1.0, "mode": "fan_avg", "seed": null, "distribution": "uniform"}, "class_name": "VarianceScaling"}, "return_sequences": false, "bias_initializer": {"config": {}, "class_name": "Zeros"}, "units": 100, "recurrent_regularizer": null, "recurrent_initializer": {"config": {"gain": 1.0, "seed": null}, "class_name": "Orthogonal"}, "activity_regularizer": null, "recurrent_activation": "sigmoid", "implementation": 2, "bias_regularizer": null, "unit_forget_bias": true, "activation": "tanh", "recurrent_constraint": null, "bias_constraint": null}, "class_name": "LSTM"}, {"config": {"scale": true, "momentum": 0.99, "name": "batch_normalization_8", "trainable": true, "beta_constraint": null, "gamma_constraint": null, "center": true, "epsilon": 0.001, "beta_initializer": {"config": {}, "class_name": "Zeros"}, "gamma_regularizer": null, "beta_regularizer": null, "dtype": "float32", "gamma_initializer": {"config": {}, "class_name": "Ones"}, "moving_mean_initializer": {"config": {}, "class_name": "Zeros"}, "moving_variance_initializer": {"config": {}, "class_name": "Ones"}, "axis": -1}, "class_name": "BatchNormalization"}, {"config": {"name": "dense_1", "trainable": true, "use_bias": true, "bias_initializer": {"config": {}, "class_name": "Zeros"}, "activation": "linear", "units": 1, "bias_regularizer": null, "dtype": "float32", "activity_regularizer": null, "kernel_regularizer": null, "kernel_initializer": {"config": {"scale": 1.0, "mode": "fan_avg", "seed": null, "distribution": "uniform"}, "class_name": "VarianceScaling"}, "bias_constraint": null, "kernel_constraint": null}, "class_name": "Dense"}], "name": "sequential_1"}, "class_name": "Sequential"}