{"config": {"layers": [{"config": {"kernel_initializer": {"config": {"mode": "fan_avg", "scale": 1.0, "seed": null, "distribution": "uniform"}, "class_name": "VarianceScaling"}, "bias_regularizer": null, "recurrent_dropout": 0.2, "recurrent_constraint": null, "dtype": "float32", "recurrent_initializer": {"config": {"seed": null, "gain": 1.0}, "class_name": "Orthogonal"}, "dropout": 0.0, "stateful": false, "bias_constraint": null, "activity_regularizer": null, "go_backwards": false, "return_state": false, "unroll": false, "return_sequences": true, "unit_forget_bias": true, "name": "lstm_1", "units": 100, "kernel_regularizer": null, "kernel_constraint": null, "bias_initializer": {"config": {}, "class_name": "Zeros"}, "activation": "tanh", "implementation": 2, "recurrent_regularizer": null, "use_bias": true, "trainable": true, "recurrent_activation": "sigmoid", "batch_input_shape": [null, 21, 706]}, "class_name": "LSTM"}, {"config": {"trainable": true, "scale": true, "moving_mean_initializer": {"config": {}, "class_name": "Zeros"}, "axis": -1, "dtype": "float32", "center": true, "gamma_constraint": null, "beta_initializer": {"config": {}, "class_name": "Zeros"}, "moving_variance_initializer": {"config": {}, "class_name": "Ones"}, "gamma_regularizer": null, "beta_regularizer": null, "momentum": 0.99, "gamma_initializer": {"config": {}, "class_name": "Ones"}, "name": "batch_normalization_1", "beta_constraint": null, "epsilon": 0.001}, "class_name": "BatchNormalization"}, {"config": {"kernel_initializer": {"config": {"mode": "fan_avg", "scale": 1.0, "seed": null, "distribution": "uniform"}, "class_name": "VarianceScaling"}, "bias_regularizer": null, "recurrent_dropout": 0.2, "recurrent_constraint": null, "dtype": "float32", "recurrent_initializer": {"config": {"seed": null, "gain": 1.0}, "class_name": "Orthogonal"}, "dropout": 0.0, "stateful": false, "bias_constraint": null, "activity_regularizer": null, "go_backwards": false, "return_state": false, "unroll": false, "return_sequences": true, "unit_forget_bias": true, "name": "lstm_2", "units": 100, "kernel_regularizer": null, "kernel_constraint": null, "bias_initializer": {"config": {}, "class_name": "Zeros"}, "activation": "tanh", "implementation": 2, "recurrent_regularizer": null, "use_bias": true, "trainable": true, "recurrent_activation": "sigmoid", "batch_input_shape": [null, 21, 706]}, "class_name": "LSTM"}, {"config": {"trainable": true, "scale": true, "moving_mean_initializer": {"config": {}, "class_name": "Zeros"}, "axis": -1, "dtype": "float32", "center": true, "gamma_constraint": null, "beta_initializer": {"config": {}, "class_name": "Zeros"}, "moving_variance_initializer": {"config": {}, "class_name": "Ones"}, "gamma_regularizer": null, "beta_regularizer": null, "momentum": 0.99, "gamma_initializer": {"config": {}, "class_name": "Ones"}, "name": "batch_normalization_2", "beta_constraint": null, "epsilon": 0.001}, "class_name": "BatchNormalization"}, {"config": {"kernel_initializer": {"config": {"mode": "fan_avg", "scale": 1.0, "seed": null, "distribution": "uniform"}, "class_name": "VarianceScaling"}, "bias_regularizer": null, "recurrent_dropout": 0.2, "recurrent_constraint": null, "dtype": "float32", "recurrent_initializer": {"config": {"seed": null, "gain": 1.0}, "class_name": "Orthogonal"}, "dropout": 0.0, "stateful": false, "bias_constraint": null, "activity_regularizer": null, "go_backwards": false, "return_state": false, "unroll": false, "return_sequences": true, "unit_forget_bias": true, "name": "lstm_3", "units": 100, "kernel_regularizer": null, "kernel_constraint": null, "bias_initializer": {"config": {}, "class_name": "Zeros"}, "activation": "tanh", "implementation": 2, "recurrent_regularizer": null, "use_bias": true, "trainable": true, "recurrent_activation": "sigmoid", "batch_input_shape": [null, 21, 706]}, "class_name": "LSTM"}, {"config": {"trainable": true, "scale": true, "moving_mean_initializer": {"config": {}, "class_name": "Zeros"}, "axis": -1, "dtype": "float32", "center": true, "gamma_constraint": null, "beta_initializer": {"config": {}, "class_name": "Zeros"}, "moving_variance_initializer": {"config": {}, "class_name": "Ones"}, "gamma_regularizer": null, "beta_regularizer": null, "momentum": 0.99, "gamma_initializer": {"config": {}, "class_name": "Ones"}, "name": "batch_normalization_3", "beta_constraint": null, "epsilon": 0.001}, "class_name": "BatchNormalization"}, {"config": {"kernel_initializer": {"config": {"mode": "fan_avg", "scale": 1.0, "seed": null, "distribution": "uniform"}, "class_name": "VarianceScaling"}, "bias_regularizer": null, "recurrent_dropout": 0.2, "recurrent_constraint": null, "dtype": "float32", "recurrent_initializer": {"config": {"seed": null, "gain": 1.0}, "class_name": "Orthogonal"}, "dropout": 0.0, "stateful": false, "bias_constraint": null, "activity_regularizer": null, "go_backwards": false, "return_state": false, "unroll": false, "return_sequences": true, "unit_forget_bias": true, "name": "lstm_4", "units": 100, "kernel_regularizer": null, "kernel_constraint": null, "bias_initializer": {"config": {}, "class_name": "Zeros"}, "activation": "tanh", "implementation": 2, "recurrent_regularizer": null, "use_bias": true, "trainable": true, "recurrent_activation": "sigmoid", "batch_input_shape": [null, 21, 706]}, "class_name": "LSTM"}, {"config": {"trainable": true, "scale": true, "moving_mean_initializer": {"config": {}, "class_name": "Zeros"}, "axis": -1, "dtype": "float32", "center": true, "gamma_constraint": null, "beta_initializer": {"config": {}, "class_name": "Zeros"}, "moving_variance_initializer": {"config": {}, "class_name": "Ones"}, "gamma_regularizer": null, "beta_regularizer": null, "momentum": 0.99, "gamma_initializer": {"config": {}, "class_name": "Ones"}, "name": "batch_normalization_4", "beta_constraint": null, "epsilon": 0.001}, "class_name": "BatchNormalization"}, {"config": {"kernel_initializer": {"config": {"mode": "fan_avg", "scale": 1.0, "seed": null, "distribution": "uniform"}, "class_name": "VarianceScaling"}, "bias_regularizer": null, "recurrent_dropout": 0.2, "recurrent_constraint": null, "dtype": "float32", "recurrent_initializer": {"config": {"seed": null, "gain": 1.0}, "class_name": "Orthogonal"}, "dropout": 0.0, "stateful": false, "bias_constraint": null, "activity_regularizer": null, "go_backwards": false, "return_state": false, "unroll": false, "return_sequences": true, "unit_forget_bias": true, "name": "lstm_5", "units": 100, "kernel_regularizer": null, "kernel_constraint": null, "bias_initializer": {"config": {}, "class_name": "Zeros"}, "activation": "tanh", "implementation": 2, "recurrent_regularizer": null, "use_bias": true, "trainable": true, "recurrent_activation": "sigmoid", "batch_input_shape": [null, 21, 706]}, "class_name": "LSTM"}, {"config": {"trainable": true, "scale": true, "moving_mean_initializer": {"config": {}, "class_name": "Zeros"}, "axis": -1, "dtype": "float32", "center": true, "gamma_constraint": null, "beta_initializer": {"config": {}, "class_name": "Zeros"}, "moving_variance_initializer": {"config": {}, "class_name": "Ones"}, "gamma_regularizer": null, "beta_regularizer": null, "momentum": 0.99, "gamma_initializer": {"config": {}, "class_name": "Ones"}, "name": "batch_normalization_5", "beta_constraint": null, "epsilon": 0.001}, "class_name": "BatchNormalization"}, {"config": {"kernel_initializer": {"config": {"mode": "fan_avg", "scale": 1.0, "seed": null, "distribution": "uniform"}, "class_name": "VarianceScaling"}, "bias_regularizer": null, "recurrent_dropout": 0.2, "recurrent_constraint": null, "dtype": "float32", "recurrent_initializer": {"config": {"seed": null, "gain": 1.0}, "class_name": "Orthogonal"}, "dropout": 0.0, "stateful": false, "bias_constraint": null, "activity_regularizer": null, "go_backwards": false, "return_state": false, "unroll": false, "return_sequences": true, "unit_forget_bias": true, "name": "lstm_6", "units": 100, "kernel_regularizer": null, "kernel_constraint": null, "bias_initializer": {"config": {}, "class_name": "Zeros"}, "activation": "tanh", "implementation": 2, "recurrent_regularizer": null, "use_bias": true, "trainable": true, "recurrent_activation": "sigmoid", "batch_input_shape": [null, 21, 706]}, "class_name": "LSTM"}, {"config": {"trainable": true, "scale": true, "moving_mean_initializer": {"config": {}, "class_name": "Zeros"}, "axis": -1, "dtype": "float32", "center": true, "gamma_constraint": null, "beta_initializer": {"config": {}, "class_name": "Zeros"}, "moving_variance_initializer": {"config": {}, "class_name": "Ones"}, "gamma_regularizer": null, "beta_regularizer": null, "momentum": 0.99, "gamma_initializer": {"config": {}, "class_name": "Ones"}, "name": "batch_normalization_6", "beta_constraint": null, "epsilon": 0.001}, "class_name": "BatchNormalization"}, {"config": {"kernel_initializer": {"config": {"mode": "fan_avg", "scale": 1.0, "seed": null, "distribution": "uniform"}, "class_name": "VarianceScaling"}, "bias_regularizer": null, "recurrent_dropout": 0.2, "recurrent_constraint": null, "dtype": "float32", "recurrent_initializer": {"config": {"seed": null, "gain": 1.0}, "class_name": "Orthogonal"}, "dropout": 0.0, "stateful": false, "bias_constraint": null, "activity_regularizer": null, "go_backwards": false, "return_state": false, "unroll": false, "return_sequences": true, "unit_forget_bias": true, "name": "lstm_7", "units": 100, "kernel_regularizer": null, "kernel_constraint": null, "bias_initializer": {"config": {}, "class_name": "Zeros"}, "activation": "tanh", "implementation": 2, "recurrent_regularizer": null, "use_bias": true, "trainable": true, "recurrent_activation": "sigmoid", "batch_input_shape": [null, 21, 706]}, "class_name": "LSTM"}, {"config": {"trainable": true, "scale": true, "moving_mean_initializer": {"config": {}, "class_name": "Zeros"}, "axis": -1, "dtype": "float32", "center": true, "gamma_constraint": null, "beta_initializer": {"config": {}, "class_name": "Zeros"}, "moving_variance_initializer": {"config": {}, "class_name": "Ones"}, "gamma_regularizer": null, "beta_regularizer": null, "momentum": 0.99, "gamma_initializer": {"config": {}, "class_name": "Ones"}, "name": "batch_normalization_7", "beta_constraint": null, "epsilon": 0.001}, "class_name": "BatchNormalization"}, {"config": {"kernel_initializer": {"config": {"mode": "fan_avg", "scale": 1.0, "seed": null, "distribution": "uniform"}, "class_name": "VarianceScaling"}, "bias_regularizer": null, "recurrent_dropout": 0.2, "recurrent_constraint": null, "dtype": "float32", "recurrent_initializer": {"config": {"seed": null, "gain": 1.0}, "class_name": "Orthogonal"}, "dropout": 0.0, "stateful": false, "bias_constraint": null, "activity_regularizer": null, "go_backwards": false, "return_state": false, "unroll": false, "return_sequences": false, "unit_forget_bias": true, "name": "lstm_8", "units": 100, "kernel_regularizer": null, "kernel_constraint": null, "bias_initializer": {"config": {}, "class_name": "Zeros"}, "activation": "tanh", "implementation": 2, "recurrent_regularizer": null, "use_bias": true, "trainable": true, "recurrent_activation": "sigmoid"}, "class_name": "LSTM"}, {"config": {"trainable": true, "scale": true, "moving_mean_initializer": {"config": {}, "class_name": "Zeros"}, "axis": -1, "dtype": "float32", "center": true, "gamma_constraint": null, "beta_initializer": {"config": {}, "class_name": "Zeros"}, "moving_variance_initializer": {"config": {}, "class_name": "Ones"}, "gamma_regularizer": null, "beta_regularizer": null, "momentum": 0.99, "gamma_initializer": {"config": {}, "class_name": "Ones"}, "name": "batch_normalization_8", "beta_constraint": null, "epsilon": 0.001}, "class_name": "BatchNormalization"}, {"config": {"bias_initializer": {"config": {}, "class_name": "Zeros"}, "kernel_constraint": null, "units": 15, "bias_regularizer": null, "kernel_regularizer": null, "dtype": "float32", "bias_constraint": null, "activation": "linear", "activity_regularizer": null, "kernel_initializer": {"config": {"mode": "fan_avg", "scale": 1.0, "seed": null, "distribution": "uniform"}, "class_name": "VarianceScaling"}, "name": "dense_1", "use_bias": true, "trainable": true}, "class_name": "Dense"}, {"config": {"dtype": "float32", "name": "activation_1", "trainable": true, "activation": "sigmoid"}, "class_name": "Activation"}], "name": "sequential_1"}, "keras_version": "2.3.1", "backend": "tensorflow", "class_name": "Sequential"}